epochs: 600  # total train epochs
per_batch_size: 128
img_size: 640
iou_thres: 0.7
conf_free: True
clip_grad: True
ms_loss_scaler: dynamic
ms_loss_scaler_value: 65536.0
ms_amp_level: O2
sync_bn: False
anchor_base: False
opencv_threads_num: 0  # opencv: disable threading optimizations

network:
  model_name: yolov11
  nc: 80  # number of classes
  reg_max: 16

  stride: [8, 16, 32]

  # YOLOv8.0n backbone
  backbone:
    # [from, repeats, module, args]
    - [-1, 1, ConvNormAct, [64, 3, 2]]  # 0-P1/2
    - [-1, 1, ConvNormAct, [128, 3, 2]]  # 1-P2/4
    - [-1, 2, C3k2, [256, False, 0.25]]
    - [-1, 1, ConvNormAct, [256, 3, 2]]  # 3-P3/8
    - [-1, 2, C3k2, [512, False, 0.25]]
    - [-1, 1, ConvNormAct, [512, 3, 2]]  # 5-P4/16
    - [-1, 2, C3k2, [512, True]]
    - [-1, 1, ConvNormAct, [1024, 3, 2]]  # 7-P5/32
    - [-1, 2, C3k2, [1024, True]]
    - [-1, 1, SPPF, [1024, 5]]  # 9
    - [-1, 2, C2PSA, [1024]] # 10

  # YOLO11n head
  head:
    - [-1, 1, Upsample, [None, 2, 'nearest']]
    - [[-1, 6], 1, Concat, [1]]  # cat backbone P4
    - [-1, 2, C3k2, [512, False]]  # 13

    - [-1, 1, Upsample, [None, 2, 'nearest']]
    - [[-1, 4], 1, Concat, [1] ]  # cat backbone P3
    - [-1, 2, C3k2, [256, False]]  # 16 (P3/8-small)

    - [-1, 1, ConvNormAct, [256, 3, 2]]
    - [[ -1, 13], 1, Concat, [1]]  # cat head P4
    - [-1, 2, C3k2, [512, False]]  # 19 (P4/16-medium)

    - [-1, 1, ConvNormAct, [512, 3, 2]]
    - [[-1, 10], 1, Concat, [1]]  # cat head P5
    - [-1, 2, C3k2, [1024, True]]  # 22 (P5/32-large)

    - [[16, 19, 22], 1, YOLOv11Head, [nc, reg_max, stride]]  # Detect(P3, P4, P5)
